model_reserved/cnn_basic_quan/model_final.pth (torch, 48058 bytes, 19 tensors)

weight f4 [4, 1, 2, 3]
0	0x3c80dffd	0.015731806
1	0x3cd68ca3	0.026190108
2	0xbc811459	-0.015756773
3	0xbe52e04f	-0.2059338
4	0x3ca435ff	0.020045279
5	0x3e2ba8ae	0.16763565
6	0x3e75ca92	0.24003056
7	0x3e110820	0.14163256
8	0xbe50184d	-0.2032177
9	0x3eff2a67	0.49837038
10	0x3ffdb7fa	1.982177
11	0xbe85aa72	-0.26106602
12	0x3e7432fe	0.23847577
13	0x3e36e4a3	0.17860655
14	0xbdea6e78	-0.114468515
15	0x3ef7e939	0.48420122
16	0xbf238135	-0.6386903
17	0x3f677f67	0.90428776
18	0xbee3124b	-0.44349894
19	0xbe915562	-0.28385454
20	0x3f10312f	0.5632505
21	0xbf1ac173	-0.6045143
22	0x3dad01f1	0.08447636
23	0xbf71e151	-0.9448443

bias f4 [4]
0	0xbed65086	-0.4185831
1	0xbe01bc08	-0.12669384
2	0x3edf116e	0.43567985
3	0xbdca0fe8	-0.09866315

weight f4 [4, 1, 102]
0	0x3f7fbf4b	0.99901265
1	0x3f814e1a	1.010196
2	0x3f813098	1.0092955
3	0x3f7ab812	0.9793712
4	0x3f7f7636	0.9978975
5	0x3fa9916c	1.3247504
6	0x3f672e2c	0.9030483
7	0x3f81721c	1.0112948
8	0x3f84fa02	1.0388796
9	0x3f7d226d	0.98880655
10	0x3f812a73	1.009108
11	0x3f7e0ff7	0.9924311
12	0x3f7e3205	0.99295074
13	0x3f7f231c	0.9966295
14	0x3f84eeab	1.0385336
15	0x3f89ac07	1.0755624
16	0x3f89b369	1.0757877
17	0x3f773b2a	0.9657465
18	0x3f8951f6	1.0728137
19	0x3f7a9dca	0.97897017
20	0x3f85adac	1.0443625
21	0x3f6ca2da	0.9243599
22	0x3f768a32	0.9630462
23	0x3f7d9c8e	0.9906701
24	0x3f72b6c7	0.94810146
25	0x3f67984f	0.9046678
26	0x3f899c0a	1.0750744
27	0x3f850f59	1.0395309
28	0x3f892a8a	1.0716107
29	0x3f76d478	0.9641795
30	0x3f7d54fa	0.9895779
31	0x3f784b00	0.9698944
32	0x3f6e651d	0.93123037
33	0x3f85ae51	1.0443822
34	0x3f6fd05f	0.93677324
35	0x3f829ec6	1.0204704
36	0x3f82d8b6	1.0222385
37	0x3f742a0e	0.9537667
38	0x3f8c05d5	1.093928
39	0x3f8202c9	1.01571
40	0x3f7955f4	0.9739678
41	0x3f8badbd	1.0912396
42	0x3f8a11d9	1.0786697
43	0x3f70d2c6	0.94071615
44	0x3f752fa8	0.9577584
45	0x3f7d6e75	0.9899667
46	0x3f886c99	1.0658141
47	0x3f8195b3	1.012381
48	0x3f69f8f8	0.9139552
49	0x3f82a884	1.0207677
50	0x3f74ed9f	0.9567508
51	0x3f813873	1.0095352
52	0x3f854373	1.0411209
53	0x3f67982b	0.90466565
54	0x3f7902d0	0.97269917
55	0x3f689bfa	0.90863
56	0x3f82476d	1.0178047
57	0x3f7a63b6	0.97808397
58	0x3f83ae89	1.0287639
59	0x3f5574aa	0.8338114
60	0x3f80fece	1.007776
61	0x3f81ccde	1.0140646
62	0x3f7c7e07	0.986298
63	0x3f852c6d	1.0404183
64	0x3f876f94	1.0580926
65	0x3f851228	1.0396166
66	0x3f7c2e61	0.9850827
67	0x3f821465	1.0162474
68	0x3f8d454c	1.1036773
69	0x3f86432a	1.0489247
70	0x3f7d4ccb	0.989453
71	0x3f757ec2	0.9589654
72	0x3f8bb4cc	1.091455
73	0x3f72de11	0.94870096
74	0x3f6f0883	0.9337236
75	0x3f76fac2	0.96476376
76	0x3f8294df	1.0201682
77	0x3f705bb5	0.93889934
78	0x3f717191	0.94313914
79	0x3f7499ba	0.9554707
80	0x3f77c62e	0.96786773
81	0x3f74750d	0.95491105
82	0x3f803c4c	1.0018401
83	0x3f8588e8	1.0432405
84	0x3f8eeaf4	1.1165452
85	0x3f8006b2	1.0002043
86	0x3f76e356	0.9644064
87	0x3f798596	0.9746946
88	0x3f84b554	1.0367837
89	0x3f85ba50	1.0447483
90	0x3f800bbc	1.0003581
91	0x3f89b6fa	1.0758965
92	0x3f671e23	0.9028036
93	0x3f870d8e	1.0551012
94	0x3f8486db	1.0353655
95	0x3f81177f	1.0085295
96	0x3f6fa4d7	0.936109
97	0x3f8890d3	1.0669197
98	0x3f684f0d	0.9074562
99	0x3f82af27	1.0209702
100	0x3f7464a3	0.9546606
101	0x3f800000	1.0
102	0x3fb44cff	1.4085997
103	0x3f80014a	1.0000393
104	0x3fa25c3e	1.26844
105	0x3f890506	1.0704658
106	0x3fab1e1f	1.3368567
107	0x3faae07b	1.3349756
108	0x3f9d910c	1.230989
109	0x3f93354f	1.1500643
110	0x3f9c3755	1.2204386
111	0x3f80a188	1.0049295
112	0x3f9da9ca	1.231744
113	0x3f95fa86	1.1717079
114	0x3fa86596	1.3156002
115	0x3f99584b	1.198007
116	0x3f966c11	1.1751729
117	0x3f908e59	1.1293441
118	0x3f82a5f0	1.020689
119	0x3f932597	1.1495847
120	0x3f8de7f8	1.1086416
121	0x3f6c3a2d	0.9227627
122	0x3fa0c15a	1.2559006
123	0x3f8175db	1.0114092
124	0x3f7ecebc	0.995342
125	0x3f7684f5	0.96296626
126	0x3f980362	1.1876032
127	0x3f56ac26	0.8385643
128	0x3f9407f7	1.1564931
129	0x3f81d36b	1.0142645
130	0x3fad6616	1.3546779
131	0x3f1c0bbc	0.60955405
132	0x3fa35e05	1.2763067
133	0x3f806013	1.002932
134	0x3f91feef	1.1405925
135	0x3f686ae8	0.90788126
136	0x3f98eebb	1.1947855
137	0x3f820c7c	1.016006
138	0x3f9671cb	1.1753477
139	0x3f8e49cf	1.1116275
140	0x3f9ed411	1.2408468
141	0x3f8cf704	1.1012883
142	0x3f90f337	1.1324223
143	0x3f8b1e4c	1.0868621
144	0x3f9ea987	1.2395486
145	0x3f795305	0.973923
146	0x3fb57b1f	1.4178199
147	0x3f978bf8	1.183959
148	0x3fbfff48	1.4999781
149	0x3f907fcc	1.1289
150	0x3fd326de	1.6496236
151	0x3fb2df36	1.3974369
152	0x401052fb	2.2550647
153	0x3fbc6d63	1.4720882
154	0x400065e6	2.0062194
155	0x3e884231	0.26613
156	0x3fc3bf5a	1.5292771
157	0x3f8e49c2	1.1116259
158	0x3fcd1bcd	1.6024109
159	0x3fabc976	1.3420856
160	0x3fc6dfae	1.5537012
161	0x3f3af299	0.73026425
162	0x3fa26323	1.2686504
163	0x3f564fe1	0.83715636
164	0x3f931a8f	1.149248
165	0x3f97c77b	1.1857752
166	0x3f8a48bd	1.0803448
167	0x3f81b4ff	1.0133361
168	0x3f954755	1.1662394
169	0x3f964ac7	1.174157
170	0x3fad1aaf	1.3523768
171	0x3f844ec9	1.0336543
172	0x3f9d1290	1.227129
173	0x3f6af7c7	0.9178433
174	0x3f9a6fdd	1.2065388
175	0x3f6ab57b	0.9168317
176	0x3f9cf97b	1.2263635
177	0x3f892e55	1.0717264
178	0x3fa88d83	1.3168186
179	0x3f8405e5	1.0314299
180	0x3f9924f9	1.1964408
181	0x3f694ddb	0.91134423
182	0x3f814b57	1.0101117
183	0x3f930e0a	1.1488659
184	0x3f569642	0.83823025
185	0x3f8d7d8b	1.1053938
186	0x3f6c50f1	0.92311007
187	0x3f8dc992	1.1077139
188	0x3f87b37e	1.0601652
189	0x3f97532b	1.1822256
190	0x3f75a7ee	0.95959365
191	0x3f915223	1.1353191
192	0x3f8d6342	1.1045916
193	0x3f77d752	0.9681293
194	0x3f910f15	1.1332728
195	0x3f82642f	1.0186824
196	0x3f9377bd	1.1520916
197	0x3f73b508	0.95198107
198	0x3fa3779f	1.277088
199	0x3f95fa70	1.1717052
200	0x3f9ef679	1.2418967
201	0x3f895844	1.0730062
202	0x3f984c62	1.189831
203	0x3f6be257	0.9214224
204	0x3ff746b4	1.9318452
205	0x3ec7aa50	0.38997126
206	0x3f6bea9d	0.92154866
207	0x3f991065	1.1958128
208	0x3fae2f2b	1.3608145
209	0x3f090093	0.535165
210	0x3fa25055	1.2680765
211	0x3f47d08f	0.7805261
212	0x3f9ac6af	1.2091883
213	0x3f50c04a	0.8154341
214	0x3fb8e3eb	1.4444555
215	0x3f0443d5	0.51666003
216	0x3fa12534	1.2589478
217	0x3ebd8adb	0.3702
218	0x3f825dca	1.0184872
219	0x3f903f12	1.1269248
220	0x3f93c3f3	1.1544174
221	0x3f8a8fcf	1.0825137
222	0x3f90f7cc	1.1325622
223	0x3fb79889	1.4343425
224	0x3f37893a	0.71693766
225	0x3f5898c7	0.8460812
226	0x3f9fc506	1.2482002
227	0x3f969409	1.1763927
228	0x3f7ef2c9	0.9958921
229	0x3fc3ee71	1.5307142
230	0x3fb2eba8	1.3978167
231	0x3f4e4d1b	0.80586404
232	0x3f615e7c	0.88034797
233	0x40267a89	2.601229
234	0x3f459a44	0.77188516
235	0x3f7d10b0	0.9885359
236	0x3f96b4cb	1.1773924
237	0x3f72cf12	0.94847214
238	0x3f8cfad5	1.1014048
239	0x3f031de4	0.51217484
240	0x3fe63669	1.7985355
241	0x3f7c3318	0.9851546
242	0x3fb593eb	1.4185766
243	0x3ebd1849	0.3693259
244	0x3f976ac9	1.1829463
245	0xbe27ed2e	-0.1639907
246	0x3fc040e0	1.5019798
247	0x3fba7d88	1.4569559
248	0x3f5fd3ea	0.8743273
249	0x3f618795	0.88097507
250	0x3feb532f	1.8384761
251	0x3f877ba6	1.058461
252	0x3fbfc89b	1.4983095
253	0x3f06647a	0.52497065
254	0x40ea7335	7.3265634
255	0x3ef3c0ef	0.47608134

bias f4 [4, 1, 102]
0	0xbad0b1ae	-0.0015922093
1	0x3c97f67b	0.018550148
2	0x3ced55a6	0.028971504
3	0xbcccab79	-0.024984108
4	0xbcded39e	-0.027200516
5	0x3d033f19	0.032042596
6	0xbda2da02	-0.07951738
7	0x3bb01706	0.0053738384
8	0x3d0f3e6a	0.034971632
9	0x3c0e5227	0.008686579
10	0x3d40841e	0.047000997
11	0x3cd5530c	0.026040576
12	0x3cb0587e	0.021526571
13	0xbb6eef39	-0.0036458506
14	0x3d2e659c	0.04257737
15	0x3d32dc36	0.04366704
16	0x3dad59b4	0.08464375
17	0xbc6f56d3	-0.014608103
18	0x3db77a7a	0.089589074
19	0xbcb3e77c	-0.021960966
20	0x3c4218e1	0.011846752
21	0xbd8239a2	-0.06358649
22	0xbd12549f	-0.035725232
23	0xbbbcf30d	-0.0057662786
24	0xbd3a2c64	-0.04545249
25	0xbdbecc51	-0.09316314
26	0x3cdfe697	0.027331633
27	0x3cef3b37	0.02920304
28	0x3d1847f0	0.03717798
29	0xbce739f7	-0.028225882
30	0xbc72952d	-0.014806074
31	0xbaeb38cd	-0.0017946005
32	0xbd93865d	-0.07203362
33	0x3cbeb424	0.023279257
34	0xbdd0fd1b	-0.10204526
35	0x3c00ce51	0.00786169
36	0xbcd17a82	-0.025571112
37	0xbd53033a	-0.05151675
38	0x3c8448c1	0.016147973
39	0xba9b6020	-0.0011854209
40	0xbd20c07b	-0.039246064
41	0x3db0cd27	0.0863288
42	0x3c99318c	0.018700384
43	0xbd66e6ef	-0.05637258
44	0xbd388896	-0.045052134
45	0x3c05c624	0.008164916
46	0x3d298b16	0.04139241
47	0x3cd4c317	0.025971932
48	0xbd28e4cd	-0.041233826
49	0xbc9743e8	-0.018464997
50	0xbc5a9b10	-0.013342634
51	0x3cf01e40	0.0293113
52	0x3d895277	0.06705182
53	0xbdd85f2e	-0.10565029
54	0xbd334c90	-0.043774188
55	0xbdb7afa8	-0.08969051
56	0x3c9b1089	0.018928783
57	0xbd063ae9	-0.032771025
58	0xbc6e10f3	-0.014530408
59	0xbe1b0d73	-0.15141849
60	0x3ceb58ba	0.028728832
61	0xbc00db38	-0.007864766
62	0xbc4a285c	-0.012338724
63	0x3d525483	0.051350128
64	0x3deb0a31	0.11476553
65	0x3cdc7dab	0.026915392
66	0x3b9eeca4	0.004849987
67	0x3d0380f1	0.03210539
68	0x3d993b0a	0.07481964
69	0x3d8cb6bf	0.068707936
70	0xbd8d3bac	-0.06896147
71	0xbca9601e	-0.020675715
72	0x3cb5e6c6	0.022204768
73	0xbd36d40e	-0.044635825
74	0xbd7580e9	-0.05993739
75	0xbcfa1155	-0.030525843
76	0x3cb0b817	0.021572156
77	0xbd965fad	-0.073424675
78	0xbd08cb17	-0.033396807
79	0xbd7d981c	-0.06191264
80	0xbd38cefe	-0.045119278
81	0xbd68ddd3	-0.056852173
82	0xbc356411	-0.011071221
83	0x3dab7a2b	0.08372911
84	0x3de328e1	0.110917814
85	0x3c1ea300	0.009682417
86	0xbd89a80a	-0.06721504
87	0xbcff22ae	-0.031144466
88	0x3d4382d4	0.04773219
89	0x3d9e6fba	0.07736154
90	0x3a6a7ffc	0.0008945463
91	0x3da0a208	0.07843405
92	0xbdecc49d	-0.115609385
93	0x3d772998	0.0603424
94	0x3d714532	0.05890388
95	0x3d057b98	0.03258857
96	0xbda77921	-0.081774004
97	0x3cd40062	0.025879089
98	0xbddf47e7	-0.10902386
99	0x3cd65747	0.026164664
100	0xbd42e80e	-0.047584586
101	0x00000000	0.0
102	0x3d664ca4	0.056225434
103	0x3e8a60a1	0.27026847
104	0xbde4ccf8	-0.11171907
105	0x3f0a8ed6	0.541242
106	0xbdb34f6d	-0.08755384
107	0x3e4b36b2	0.19845083
108	0x3d96cbe9	0.073631115
109	0x3e1407f1	0.14456154
110	0x3e8d30d6	0.2757632
111	0x3e8ab20d	0.27088967
112	0x3e29d747	0.16586028
113	0x3ea8bcaa	0.3295644
114	0x3d4e6172	0.0503859
115	0x3ea9161e	0.33024687
116	0x3e13a8a8	0.14419806
117	0xbce75c26	-0.028242182
118	0x3e07e9e6	0.13272819
119	0x3e00373a	0.12521067
120	0x3e2f7d53	0.17137651
121	0x3e7c3ea1	0.24633266
122	0xbc9212ad	-0.017831171
123	0x3e8997f6	0.2687375
124	0x3dc22937	0.09480517
125	0x3d9c523c	0.076328725
126	0x3d9a4c55	0.075340904
127	0x3e4f42a7	0.2024027
128	0xbd2501a4	-0.040284768
129	0xbd5a841d	-0.05334865
130	0xbe90d09f	-0.28284165
131	0xbdec7179	-0.11545081
132	0xbed84952	-0.4224344
133	0x3e8dc40b	0.2768863
134	0x3e1bac3a	0.15202418
135	0x3e92068c	0.2852062
136	0x3e5b5f7f	0.21423148
137	0x3e9bd495	0.30435625
138	0x3e797b03	0.24363331
139	0x3e4ffb91	0.20310809
140	0x3edafc58	0.42770648
141	0x3e86960c	0.26286352
142	0x3de1f7fd	0.11033628
143	0x3e800e06	0.250107
144	0x3e58c1b2	0.21167639
145	0x3eaf2117	0.34204933
146	0x3ecce209	0.400162
147	0x3ed17d33	0.40915832
148	0x3eb8ba6c	0.3607973
149	0x3e2cf080	0.16888618
150	0x3e1866f9	0.14883031
151	0x3e0f2827	0.1398016
152	0xbc8aa9eb	-0.016926726
153	0x3e351ef0	0.17687583
154	0x3f7843d6	0.9697851
155	0xbf1d7b2d	-0.61516076
156	0x3ed22ef9	0.41051462
157	0x3eba340c	0.36367834
158	0x3d661fcf	0.05618268
159	0x3af4b2f1	0.0018669051
160	0x3dc385c7	0.095470004
161	0x3e46164f	0.19344448
162	0x3e0af604	0.1357041
163	0x3e7cb5b8	0.24678695
164	0x3ea932a5	0.3304645
165	0x3e9f0e28	0.31065488
166	0x3e9a3add	0.30123034
167	0x3e95af21	0.29235175
168	0x3e8c36cc	0.27385557
169	0x3ededbb8	0.43527007
170	0x3da572df	0.080785505
171	0xbdac8072	-0.084229365
172	0x3ed72c91	0.4202619
173	0x3e59be43	0.21263985
174	0x3e4f5457	0.20247017
175	0x3e76e616	0.24111208
176	0x3e06a162	0.131475
177	0x3e09b50d	0.13447972
178	0x3dde33a7	0.10849696
179	0x3e68a8fd	0.22720714
180	0x3e011380	0.12605095
181	0xbd22e97e	-0.039773457
182	0x3e9a7e2c	0.30174387
183	0x3e99b998	0.3002441
184	0xbea5e571	-0.32401612
185	0x3deef184	0.11667159
186	0x3ef9c36b	0.48781905
187	0x3ea8068c	0.32817495
188	0x3db0e5c6	0.08637576
189	0x3ea25383	0.3170434
190	0x3ed3d7aa	0.41375476
191	0x3cfb4541	0.030672671
192	0x3e24def0	0.16100669
193	0x3e2b75a8	0.16744101
194	0x3ba0f6d3	0.0049122362
195	0x3d75dedd	0.060026992
196	0xb8f250e4	-0.00011554526
197	0x3e10a143	0.14124016
198	0x3e13dc66	0.14439544
199	0x3ec1bea6	0.37840766
200	0x3e6d947a	0.2320117
201	0x3ea22fff	0.31677243
202	0x3d3a468f	0.045477446
203	0x3e153af9	0.14573278
204	0xbe0b40db	-0.13598959
205	0xbe8be7ed	-0.27325383
206	0x3e65cf5c	0.22442383
207	0x3e75e7be	0.24014184
208	0x3e857e27	0.2607281
209	0xbeef0e51	-0.4669061
210	0x3e4dc731	0.20095517
211	0xbefcb784	-0.4935876
212	0x3e579030	0.21051097
213	0xbf28c762	-0.65929234
214	0x3e6e9d15	0.2330211
215	0xbdcf1501	-0.10111428
216	0x3e847648	0.2587149
217	0x3e98648f	0.2976422
218	0x3e2d7577	0.1693934
219	0xbee5da48	-0.44893098
220	0xbe79448b	-0.24342553
221	0xbf11c7b0	-0.56945324
222	0x3e37daf5	0.17954619
223	0xbf4264c6	-0.7593502
224	0x3e4c346b	0.19941871
225	0xbee65ec7	-0.44994184
226	0x3e877a13	0.26460323
227	0xbf51aa23	-0.81900233
228	0xbd7fcf20	-0.06245339
229	0xbee3fbc2	-0.44528013
230	0x3ea2e095	0.31811967
231	0xbf66f080	-0.90210724
232	0x3e79f14a	0.2440845
233	0x3f607728	0.8768182
234	0x3db10f68	0.08645517
235	0xbdcd8f91	-0.10037149
236	0xbf0e2b44	-0.5553477
237	0xbf3b0e0d	-0.73068315
238	0x3e4111ea	0.1885449
239	0xbf019c52	-0.5062915
240	0x3ea39d82	0.31956106
241	0x3eba8079	0.36426142
242	0x3f10c11b	0.56544656
243	0x3e0769e7	0.13223992
244	0x3e4b6488	0.19862568
245	0x3e269c20	0.16270494
246	0x3e90c08b	0.282719
247	0x3eed7422	0.46377665
248	0x3e8ba299	0.2727249
249	0x3e9d9a20	0.3078165
250	0x3ea70a86	0.32625216
251	0x3ea1b29d	0.31581584
252	0xbe15fe10	-0.14647698
253	0x3d5e3acc	0.05425529
254	0x3ffbac84	1.9662023
255	0x3e2004ce	0.15626833

weight f4 [1, 4, 1, 1]
0	0x3ec14a8d	0.3775219
1	0x3f2451c0	0.6418724
2	0xbf018e2b	-0.50607556
3	0x3f230761	0.63683134

weight f4 [1, 1, 102]
0	0x3fbcb71f	1.4743384
1	0x3f6a16c5	0.91440994
2	0x3fa5aa38	1.2942572
3	0x3f8ccd46	1.1000144
4	0x3fc8bf32	1.5683348
5	0x3f5f6145	0.87257797
6	0x3fadf61b	1.359073
7	0x3f48b7c7	0.7840542
8	0x3f8f971b	1.1217989
9	0x3f73b75b	0.95201653
10	0x3fb13226	1.3843429
11	0x3f5bef74	0.8591225
12	0x3fc58835	1.5432192
13	0x3f46b0eb	0.77613705
14	0x3fbe1c5d	1.4852406
15	0x3f9b210d	1.2119461
16	0x3faf01d8	1.3672438
17	0x3f78ac57	0.9713797
18	0x3fadf698	1.359088
19	0x3f71dfa6	0.94481885
20	0x3fb967d9	1.4484817
21	0x3f5ad418	0.8547988
22	0x3faadbc4	1.3348317
23	0x3f8a1e04	1.079041
24	0x3f92b14f	1.146036
25	0x3faa037a	1.3282311
26	0x3fb28fda	1.395015
27	0x3f91d3a5	1.1392714
28	0x3fc0e9d9	1.5071365
29	0x4023bedd	2.5585244
30	0x3fb62172	1.4228957
31	0x3f7f4f2f	0.997302
32	0x3f8896f5	1.0671068
33	0x3f6528d7	0.8951544
34	0x3f85c214	1.0449853
35	0x3f5609fc	0.83608985
36	0x3fb7af99	1.4350463
37	0x3f63c48d	0.8897179
38	0x3fbbbce8	1.4667025
39	0x3f795394	0.97393155
40	0x3fa662e2	1.2998927
41	0x3f7b108a	0.9807211
42	0x3f9b8723	1.2150615
43	0x3f75cb20	0.9601307
44	0x3f9ab72a	1.2087147
45	0x3f6972c2	0.9119073
46	0x3fbed378	1.4908285
47	0x3f8a3669	1.0797855
48	0x3fc9e21d	1.5772129
49	0x3f8bb9c8	1.0916071
50	0x3f8736bf	1.0563582
51	0x3f986f34	1.1908937
52	0x3f5cf78c	0.86315227
53	0x3f6ff233	0.9372894
54	0x3f6876d5	0.90806323
55	0x3f6b8d28	0.9201226
56	0x3fa5af4c	1.2944121
57	0x3facf35a	1.3511765
58	0x3fbb696f	1.4641551
59	0x3f870a41	1.0550004
60	0x3fb2d53d	1.3971325
61	0x3f72209d	0.94581014
62	0x3fac8339	1.3477546
63	0x3f6af5eb	0.9178149
64	0x3fa8f7a0	1.3200569
65	0x3f656aee	0.89616287
66	0x3fc5ba9c	1.5447574
67	0x3f83659b	1.0265383
68	0x3f86ee5f	1.0541495
69	0x3f8f1d5b	1.1180834
70	0x3f987c7e	1.1912992
71	0x3f5d9958	0.8656211
72	0x3f6f18f4	0.9339745
73	0x3f74ef6f	0.95677847
74	0x3fa7e4fc	1.3116755
75	0x3f84b24a	1.036691
76	0x3f9f82e5	1.2461821
77	0x3f710f92	0.94164383
78	0x3fbc6872	1.4719374
79	0x3f773bab	0.9657542
80	0x3f9c5532	1.22135
81	0x3f587bc2	0.8456384
82	0x3fb2843c	1.3946605
83	0x3f725d7a	0.94673884
84	0x3fdeff39	1.7421638
85	0x3f665668	0.89975595
86	0x3fa26e66	1.2689941
87	0x3f61b3dd	0.88165075
88	0x3fa88308	1.3164988
89	0x3f82ac3c	1.0208812
90	0x3fb43a87	1.4080361
91	0x3f844f93	1.0336784
92	0x3fa80df1	1.3129255
93	0x3f94dabc	1.1629252
94	0x3fb6e284	1.4287877
95	0x3f859151	1.0434972
96	0x3fa54e24	1.2914472
97	0x3f89d6af	1.0768641
98	0x3f84e12d	1.0381218
99	0x3f85efff	1.0463866
100	0x3f8c47f4	1.0959458
101	0x3f7da1dd	0.9907511

bias f4 [1, 1, 102]
0	0x3a1c8fa7	0.00059723336
1	0x3e43ddde	0.19127604
2	0x3ddacedc	0.106839865
3	0xbdb4d6c5	-0.088300265
4	0x3e40cc60	0.18827963
5	0x3e4e3f20	0.20141268
6	0x3e9c4186	0.3051874
7	0x3e045654	0.12923557
8	0x3ea4b0e7	0.32166216
9	0x3e8b744c	0.27237165
10	0x3e7b3247	0.24530898
11	0x3e96095a	0.2930401
12	0x3e25718c	0.16156596
13	0x3ecded5a	0.40220147
14	0x3d5c3a5b	0.05376659
15	0x3dc1688a	0.09443767
16	0x3ea68e46	0.3253042
17	0x3e9c9d9c	0.30588996
18	0x3dfc452c	0.12317881
19	0x3ea3fc48	0.32028413
20	0x3e7cd625	0.24691065
21	0x3ea515b5	0.32243124
22	0x3f04177e	0.51598346
23	0x3e843b2d	0.25826398
24	0x3ebe42e0	0.37160397
25	0x3f01cfc7	0.5070767
26	0x3f09d6e9	0.5384355
27	0x3ebc234a	0.36745673
28	0xbd9cddd5	-0.076594986
29	0x3e6b9bde	0.23008677
30	0xbdfc2e71	-0.123135455
31	0x3ed852a3	0.42250547
32	0x3e6fce3b	0.23418514
33	0x3e8692c0	0.26283836
34	0x3e7b2f29	0.24529709
35	0x3e926a65	0.28596798
36	0x3ead2e49	0.33824375
37	0x3e498ff3	0.19683819
38	0x3ea7c981	0.32770923
39	0x3e252ba9	0.16129936
40	0x3eb8668c	0.36015737
41	0x3e88b473	0.26700172
42	0x3ed86e05	0.42271438
43	0x3ede92e7	0.43471453
44	0x3e0e0707	0.13869868
45	0x3ebd5976	0.36982316
46	0x3da64578	0.08118719
47	0x3ee1a39d	0.4407014
48	0xbd05985d	-0.032616008
49	0x3e59db87	0.2127515
50	0x3f96be1e	1.1776769
51	0xbcc4b074	-0.02400992
52	0xbe96f026	-0.29480094
53	0xbda28471	-0.079354174
54	0x3f094ccb	0.536328
55	0x3eab12aa	0.33412677
56	0xbe55e119	-0.20886649
57	0xbefc8dea	-0.49327022
58	0xbe1b6c36	-0.15177998
59	0x3eadae0a	0.33921844
60	0xbe094663	-0.13405757
61	0x3eac5d10	0.3366475
62	0x3e45e17a	0.19324294
63	0x3ed6c9d0	0.41950846
64	0x3eda4530	0.4263091
65	0x3e915b08	0.28389764
66	0x3ecd8a66	0.40144652
67	0x3ed6459c	0.41849983
68	0x3ca75f18	0.020431086
69	0x3e88640b	0.26638827
70	0x3f161062	0.5861875
71	0x3ec796c3	0.3898221
72	0x3eb9aabb	0.3626307
73	0x3e680a2b	0.22660129
74	0xbe095dc1	-0.1341467
75	0x3e824c00	0.25448608
76	0x3dcdc9f7	0.10048287
77	0x3ee7a606	0.45243853
78	0x3e24f131	0.16107632
79	0x3eb27944	0.34858143
80	0x3ef1548f	0.47134826
81	0x3ecaa926	0.39582175
82	0x3f0bd85d	0.5462702
83	0x3ec00474	0.37503397
84	0x3ebcae3a	0.36851674
85	0x3ef399c9	0.47578266
86	0x3e99877f	0.29986188
87	0x3f15c143	0.5849802
88	0x3ef60c6a	0.48056346
89	0x3e3e7b4e	0.18601725
90	0x3df5ed5e	0.12008165
91	0x3e759421	0.23982288
92	0x3ea56ed0	0.32311106
93	0x3e84c7e8	0.25933766
94	0x3e7894bc	0.24275488
95	0x3e9731ba	0.29530126
96	0x3ec39536	0.38199776
97	0xbcde5b48	-0.027143136
98	0x3f0bb6de	0.5457591
99	0x3d845b75	0.064627565
100	0x3e9a4a77	0.30134937
101	0x3f06bdd8	0.5263343

weight f4 [32, 102]
0	0xbf415196	-0.75515115
1	0xbefef8a5	-0.49799076
2	0x3c510155	0.012756665
3	0xbfd018f6	-1.6257617
4	0xbf34e358	-0.706594
5	0xbf92a67c	-1.1457057
6	0xbfb7bcfc	-1.4354548
7	0xbf9528f8	-1.1653128
8	0x3e7ad862	0.24496606
9	0x3f51d94c	0.81972194
10	0xbd8a5387	-0.06754213
11	0x3e3eb516	0.18623766
12	0xbe334036	-0.17504963
13	0x3f66191b	0.8988206
14	0x3ead620b	0.33863863
15	0x3e1f588c	0.15561122
16	0xbdf0acce	-0.1175171
17	0xbe0fd8a3	-0.14047484
18	0xbf989229	-1.1919605
19	0x3f5e2b9c	0.8678529
20	0x3f1d41cf	0.6142854
21	0x3ea61770	0.32439756
22	0x3f1bd5b3	0.60872954
23	0xbd288a6a	-0.041147627
24	0x3d9188d1	0.07106174
25	0xbed16c1b	-0.4090279
26	0x3df8b2b6	0.121434614
27	0x3e995813	0.29950008
28	0x3f2cb674	0.674659
29	0xbfd2aa02	-1.6458132
30	0xbe547f51	-0.20751692
31	0xbeae6b3d	-0.3406619
32	0x3e82ba33	0.25532684
33	0xbd11fbc6	-0.0356405
34	0xbd4ef736	-0.050528727
35	0x3f3debfd	0.74188215
36	0x3f7533c0	0.9578209
37	0xbdc3ea5f	-0.09566187
38	0x3d54c7ed	0.051948477
39	0xbf8056dd	-1.0026509
40	0x3e672b80	0.22575188
41	0xbf78c60c	-0.97177196
42	0xbea7e8c6	-0.3279478
43	0xbfbbefef	-1.4682597
44	0xbf187853	-0.595586
45	0x3cbee47f	0.023302315
46	0x3ee44391	0.445828
47	0x3db28c97	0.08718222
48	0xbf8e5ba9	-1.1121722
49	0xbf822ddb	-1.0170244
50	0xbe1993d6	-0.14997801
51	0x3e09b245	0.1344691
52	0x3ad1fb0a	0.001602025
53	0x3d15d022	0.036575444
54	0xbf1eda40	-0.62051773
55	0x3f546ace	0.8297547
56	0xbfb6bb12	-1.4275839
57	0x3e8b0ae0	0.27156734
58	0x3d7e132f	0.062030014
59	0x3f4cb7b5	0.79967815
60	0xbf525a42	-0.8216897
61	0xbf0a51a3	-0.5403082
62	0xbddf3fc0	-0.10900831
63	0xbf365af3	-0.7123253
64	0xbee27322	-0.44228464
65	0x3d8b92cc	0.06815109
66	0xbec353e7	-0.3814995
67	0xbedaab77	-0.42708942
68	0xbd895d89	-0.067072935
69	0xbd29ec97	-0.041485395
70	0x3f7c4814	0.9854748
71	0x3d45e389	0.048312698
72	0x3c5ae627	0.013360537
73	0xbd626d4d	-0.05528002
74	0x3f0bce80	0.5461197
75	0x3e87c8f0	0.2652049
76	0xbf463ff2	-0.7744132
77	0x3e52345b	0.20527785
78	0xbd2f6c5b	-0.042827945
79	0xbed2ae35	-0.41148534
80	0xbd5d8800	-0.054084778
81	0x3e7372c3	0.23774247
82	0xc002b80c	-2.0424833
83	0xbf387242	-0.72049344
84	0x3edee67e	0.43535227
85	0xbf7fca05	-0.9991763
86	0xbf8d4944	-1.1037984
87	0xbd476784	-0.048682705
88	0xbea2b4f3	-0.31778678
89	0xbf0f8b82	-0.5607225
90	0x3fa4797f	1.2849578
91	0x3f3b30f7	0.7312159
92	0x3e1cda5c	0.15317672
93	0x3f1958ef	0.59901327
94	0xbe952186	-0.2912714
95	0xbf324de7	-0.6965012
96	0x3ccbbc54	0.024870075
97	0xbf20e91b	-0.6285569
98	0xbf751597	-0.9573607
99	0x3ee452d1	0.44594434
100	0xbe4ecb46	-0.2019473
101	0xbf6f11df	-0.93386644
102	0x3f3a6a5d	0.7281855
103	0xbd118caf	-0.035534557
104	0x3d888e5b	0.06667777
105	0xbedce6ea	-0.43144923
106	0x3ecf06cd	0.40434876
107	0x3e44ce83	0.19219403
108	0x3e40548b	0.1878225
109	0x3d350a59	0.04419932
110	0xbdeb39ce	-0.11485635
111	0x3e64f7ce	0.22360155
112	0xbe845099	-0.2584274
113	0x3e27732a	0.16352525
114	0xbf324c57	-0.69647735
115	0xbe59d915	-0.21274216
116	0xbf2d360d	-0.676606
117	0xbe057313	-0.13032179
118	0xbdc5a271	-0.09650124
119	0xbdc92a57	-0.09822529
120	0x3e8a4472	0.27005345
121	0x3cecde30	0.028914541
122	0x3e35f901	0.17770769
123	0x3d6c98e0	0.05776298
124	0x3f2854f4	0.6575463
125	0x3ec1ee9d	0.3787736
126	0x3f8a6cd1	1.0814458
127	0x3eb46945	0.35236564
128	0x3f986744	1.1906514
129	0x3effee6e	0.49986595
130	0x3f70ca45	0.9405864
131	0xbef2dd90	-0.47434664
132	0x3f00f7a9	0.503779
133	0x3e51cd47	0.20488463
134	0x3e192111	0.1495402
135	0x3e4b4aa7	0.19852696
136	0xbe5e4d5b	-0.21709196
137	0x3e0ce17d	0.13757892
138	0xbe92d4c6	-0.28677958
139	0xbe1dbc6b	-0.15403907
140	0xbf24aa9a	-0.6432282
141	0xbd8fd4b9	-0.070229955
142	0xbf103c1a	-0.5634171
143	0xbd7edc14	-0.0622216
144	0xbec6ac8a	-0.38803512
145	0x3dd6f710	0.10496342
146	0xbdebd0c9	-0.11514432
147	0x3e96c0aa	0.29443866
148	0xbd0dd286	-0.0346246
149	0x3f3923ba	0.7232014
150	0x3ea96ffd	0.33093253
151	0x3f1fb30f	0.62382597
152	0x3ee17b00	0.44039154
153	0xbe1ca522	-0.15297368
154	0xbe99780c	-0.299744
155	0x3d1e01b8	0.038575858
156	0x3e6da41d	0.23207135
157	0xbee1d1e4	-0.44105446
158	0xbce14f5f	-0.027503667
159	0xbf2c2ae8	-0.6725297
160	0xbec483ab	-0.38381705
161	0xbe928c0e	-0.28622478
162	0xbf07ec1f	-0.5309467
163	0x3e03bfa0	0.12866068
164	0x3eaebf2d	0.3413023
165	0x3e821a8a	0.25410873
166	0x3c1e6d19	0.009669566
167	0x3e3fdb39	0.1873597
168	0x3d2d6f27	0.04234233
169	0x3e9034ad	0.28165188
170	0xbe8c6e5f	-0.27427956
171	0xbe11e4b3	-0.14247398
172	0xbe6817b8	-0.22665298
173	0xbebe800d	-0.3720707
174	0xbe1007e0	-0.14065504
175	0xbe870d14	-0.26377165
176	0xbf06144b	-0.52374715
177	0xbeda24c5	-0.42606178
178	0xbec429ae	-0.3831305
179	0xbebe629f	-0.37184617
180	0xbe9c4e4f	-0.30528495
181	0xbe8bec4b	-0.27328715
182	0xbf11e481	-0.56989294
183	0x3ed4b080	0.4154091
184	0xbe8a4d16	-0.27011937
185	0x3e122324	0.14271218
186	0xbefc5020	-0.4927988
187	0x3e26f151	0.16302992
188	0xbeea620c	-0.4577793
189	0x3e9f8212	0.31153923
190	0x3e68cf68	0.22735369
191	0x3eaca199	0.3371704
192	0x3db1f023	0.086883806
193	0xbdaf9c89	-0.085747786
194	0x3de31829	0.110885926
195	0xbc68e6c0	-0.014215171
196	0x3b452e54	0.0030087428
197	0xbdee5c54	-0.11638704
198	0x3eb3e27f	0.3513374
199	0xbd805278	-0.0626573
200	0x3eb291a0	0.34876728
201	0x3e5e3532	0.2169998
202	0x3e563c79	0.20921506
203	0x3eb0eda6	0.3455631
204	0xbdf35eed	-0.1188334
205	0xbf758f13	-0.9592144
206	0x3d3f6949	0.046731267
207	0xbfee9a40	-1.8640823
208	0xbe210f66	-0.1572853
209	0x3e0f38dd	0.13986535
210	0x3efea210	0.4973302
211	0xbeb6760b	-0.35636935
212	0x3e2678a6	0.16256961
213	0x3ea5d365	0.32387844
214	0x3f113d22	0.56733906
215	0x3f7937cf	0.9735078
216	0x3f689997	0.9085936
217	0x3f3d11b6	0.7385515
218	0x3f63937b	0.8889691
219	0x3f1d0305	0.6133273
220	0x3f36abc9	0.71355873
221	0x3dfa7e82	0.12231161
222	0xbeab84b9	-0.33499697
223	0xbdb397de	-0.08769201
224	0x3f97ddc6	1.1864555
225	0xbefd38dc	-0.49457443
226	0x3fa1a7f5	1.2629381
227	0xbde72344	-0.11286023
228	0x3ebefe7b	0.37303528
229	0x3eb6c329	0.3569577
230	0xbf830801	-1.0236818
231	0xbee4064e	-0.4453606
232	0xbf8f4251	-1.1192113
233	0x3f67b820	0.9051533
234	0xbe79cc8c	-0.24394435
235	0x3eb9034f	0.36135337
236	0x3f274e43	0.6535379
237	0x3f869666	1.0514648
238	0xbf4e3673	-0.8055183
239	0xbecae0f5	-0.39624754
240	0xbf0e7fc6	-0.55663717
241	0xbe058b87	-0.13041507
242	0xbeb24120	-0.3481531
243	0xbeb523d4	-0.35378897
244	0xbe36ad57	-0.17839561
245	0xbfbf0c3d	-1.492561
246	0xbe551994	-0.20810539
247	0x3ecc3352	0.39882904
248	0xbfc86b48	-1.565774
249	0xbf24c2e3	-0.64359874
250	0x3c7ec930	0.0155508965
251	0x3e02aac6	0.12760457
252	0xbfbf7c7b	-1.4959863
253	0xbf738854	-0.95129895
254	0x3f8199ca	1.0125058
255	0x3f4bc0e9	0.7959123

bias f4 [32]
0	0xbe670d90	-0.22563767
1	0xbd8dd5f8	-0.06925577
2	0x3c736620	0.0148558915
3	0x3e063e1d	0.13109632
4	0xbc3d9678	-0.011571519
5	0xbd08dd57	-0.03341421
6	0xbe29551b	-0.16536371
7	0xbe0e74e5	-0.13911779
8	0xbe49bb22	-0.19700292
9	0xbe9e7945	-0.30951896
10	0x3dbe231c	0.0928404
11	0x3d0744d0	0.03302461
12	0x3d77b840	0.06047845
13	0xbe0810ff	-0.13287733
14	0x3dca1b4b	0.09868487
15	0xbde74586	-0.112925574
16	0x3c729795	0.014806648
17	0xbe5040e2	-0.20337251
18	0x3dcdd25e	0.1004989
19	0x3d8f9ea6	0.07012682
20	0xbd2d86c4	-0.04236485
21	0x3d3c044d	0.04590254
22	0x3c07c3d6	0.008286437
23	0xbe8772ee	-0.26454872
24	0xbdab2512	-0.0835668
25	0x3daa1e25	0.08306531
26	0xbe6bed25	-0.23039682
27	0x3de5abd0	0.11214411
28	0x3e19dda7	0.1502596
29	0x3d17c83c	0.037056193
30	0xbdac1ada	-0.08403559
31	0xbee11024	-0.43957627

weight f4 [32]
0	0x4027fc61	2.624779
1	0x3f98cbb5	1.1937166
2	0x3f91d81b	1.1394075
3	0x3f8d8f13	1.1059288
4	0x3f97b3f4	1.1851792
5	0x3f77e738	0.96837187
6	0x3fe103fe	1.7579343
7	0x40257e92	2.5858502
8	0x3feffdb3	1.8749298
9	0x4015b531	2.339184
10	0x3f854fae	1.0414941
11	0x3f8ca231	1.0986997
12	0x3f83d460	1.0299187
13	0x3fd50e7e	1.6645048
14	0x3f8d2081	1.1025544
15	0x3f6217e0	0.8831768
16	0x3faa2fb4	1.3295808
17	0x3fec79ee	1.847471
18	0x3f8a2c55	1.0794779
19	0x3faac1f3	1.3340439
20	0x3f941691	1.1569387
21	0x3f9d4d20	1.2289162
22	0x3f9c6775	1.2219073
23	0x3ffc5f6a	1.9716618
24	0x3f822c77	1.016982
25	0x3f958971	1.1682569
26	0x3f4ee3be	0.80816257
27	0x3f87ea47	1.0618371
28	0x3f9ac491	1.2091237
29	0x3f87022c	1.0547538
30	0x3f6f77a9	0.9354196
31	0x3fe116e2	1.7585108

bias f4 [32]
0	0xbe9ffe37	-0.31248638
1	0xbd8ea99a	-0.06965943
2	0xbf16611f	-0.58741945
3	0x3ddf979a	0.109175876
4	0xbe156ad2	-0.1459153
5	0x3e929496	0.28628987
6	0x3d4656c0	0.048422575
7	0x3dc23cd1	0.09484256
8	0xbf01487a	-0.50501215
9	0xbe07b671	-0.1325319
10	0x3ed8143e	0.42202944
11	0xbdf756f7	-0.12077134
12	0x3f21ea1f	0.63247865
13	0xbe5b5375	-0.21418555
14	0x3e806260	0.25075054
15	0x3ecdc0fc	0.40186298
16	0x3e41bdf2	0.18920115
17	0xbef6697c	-0.48127353
18	0x3e0db9a6	0.1384035
19	0x3e4b419f	0.19849251
20	0xbe0ffae7	-0.14060555
21	0x3ebeb203	0.37245187
22	0x3eb1953c	0.3468417
23	0xbf3ea38d	-0.7446831
24	0xbd1ecb41	-0.038768057
25	0x3e9d716c	0.30750597
26	0x3f303950	0.6883745
27	0x3e5295d8	0.20564973
28	0x3e112963	0.14175944
29	0x3ed44c52	0.41464478
30	0xbe653127	-0.22382031
31	0xbec3ed1d	-0.3826684

weight f4 [32, 32]
0	0xbf4d9a97	-0.8031401
1	0xbef1d1a7	-0.47230265
2	0x3f1794d9	0.592115
3	0xbf3b2d00	-0.7311554
4	0x3d826c00	0.063682556
5	0xbee3d2bf	-0.44496724
6	0x3f4b9db8	0.79537535
7	0x3f61e323	0.8823721
8	0xbeb34419	-0.35012892
9	0x3fa07efc	1.2538753
10	0xbef685b3	-0.4814888
11	0xbdfb0535	-0.122568525
12	0x3ee1899d	0.44050303
13	0x3f4ddf47	0.8041882
14	0x3f35b9f7	0.70986885
15	0x3ed399cb	0.41328272
16	0x3ef59765	0.47967067
17	0xbfa133b4	-1.2593904
18	0x3db3b9ac	0.087756485
19	0xbeb4b0a6	-0.35291022
20	0xbeebd734	-0.46062624
21	0xbe281a73	-0.1641634
22	0x3edf3961	0.43598464
23	0xbf62e1e0	-0.8862591
24	0xbe2ff9c0	-0.17185116
25	0x3e87e4ca	0.2654174
26	0x3f0a6f3a	0.5407597
27	0x3e625062	0.22100976
28	0xbe6b44cf	-0.22975467
29	0x3d2595de	0.040426128
30	0x3e1d5583	0.15364651
31	0x3f0a1143	0.5393259
32	0xbea3cae1	-0.31990722
33	0xbd1dd34b	-0.038531583
34	0xbe2c4bf2	-0.16825846
35	0xbe8cd5a3	-0.27506742
36	0x3ee4c2df	0.44679925
37	0x3ef58b23	0.47957715
38	0x3e39f7f7	0.18160997
39	0xbdd5f989	-0.10447986
40	0xbe138d27	-0.14409314
41	0xbec85f66	-0.39135283
42	0x3f03d4ae	0.514964
43	0xbe3fa48c	-0.18715113
44	0xbf2d3cfb	-0.67671174
45	0x3e412547	0.18861876
46	0xbf09d27c	-0.538368
47	0x3f011f0a	0.50437987
48	0x3e97d6c1	0.29656032
49	0xbf12f000	-0.5739746
50	0xbe957281	-0.29188922
51	0x3ec9511a	0.39319688
52	0xbebe0288	-0.37111306
53	0xbdd627e1	-0.10456825
54	0x3e367e84	0.178217
55	0xbcd638cf	-0.026150135
56	0xbf2012b1	-0.6252852
57	0xbdeeb394	-0.116553456
58	0x3d9f002e	0.07763706
59	0xbea72f57	-0.32653305
60	0x3f293e28	0.6611047
61	0x3f28b8d6	0.6590704
62	0x3e172ed2	0.14763954
63	0xbef87c46	-0.48532313
64	0x3e841cf6	0.25803345
65	0x3e74cd9e	0.23906562
66	0xbfa67be4	-1.3006558
67	0xbdf47a5c	-0.11937401
68	0xbd46c3fd	-0.048526753
69	0x3f025439	0.50909764
70	0x3e661fe3	0.22473101
71	0x3d0b0238	0.033937663
72	0x3f083394	0.532037
73	0x3f084f49	0.5324598
74	0x3f2e14dc	0.6800058
75	0xbe8405c4	-0.2578565
76	0x3f14a1c4	0.58059335
77	0xbf998c9a	-1.1996033
78	0x3d5fb089	0.054611716
79	0xbf018576	-0.5059427
80	0xbe0823da	-0.13294926
81	0x3f72c820	0.94836617
82	0x3f37f0ca	0.7185179
83	0x3f01b47b	0.50666016
84	0xbf48c4bb	-0.78425187
85	0xbf377fca	-0.71679366
86	0xbdff78b0	-0.12474191
87	0xbf5b5481	-0.8567582
88	0xbef57e4a	-0.47947913
89	0xbd81c1de	-0.06335805
90	0x3c936cef	0.01799628
91	0x3de8c6a9	0.113660164
92	0xbcc9b0f6	-0.024620514
93	0xbe84bfab	-0.2592748
94	0x3ef80e31	0.48448327
95	0x3ef2ab14	0.47396147
96	0xbfaafc6d	-1.3358284
97	0xbdd26b33	-0.10274353
98	0x3ee73003	0.45153818
99	0xbec11cb0	-0.377172
100	0x3b959691	0.004565068
101	0xbd0c37d5	-0.034232933
102	0xbf7069cc	-0.93911433
103	0x3f9645c3	1.174004
104	0x3effdb47	0.49971983
105	0xbf154036	-0.58301103
106	0xbe4ba24d	-0.19886132
107	0xbe0f9454	-0.14021426
108	0xbe4f31d7	-0.20233856
109	0xbef22f0c	-0.4730152
110	0xbba5ee8a	-0.0050638365
111	0xbf2d5a60	-0.67716026
112	0xbe28ff17	-0.16503559
113	0x3e84106b	0.25793776
114	0xbf36e113	-0.71437186
115	0x3e95b09e	0.2923631
116	0xbe122b86	-0.14274415
117	0xbe31b1b0	-0.17352939
118	0x3e219bc0	0.1578207
119	0x3fb08eb3	1.3793548
120	0x3e22d0bd	0.1589994
121	0xbec891ee	-0.39173836
122	0x3eb470aa	0.35242206
123	0x3d2d3308	0.042284995
124	0x3cadbedf	0.021209178
125	0xbe2e0dcd	-0.16997452
126	0xbe318687	-0.17336474
127	0xbf1df0ed	-0.6169575
128	0xbeb134c6	-0.34610575
129	0x3dcb6dc3	0.09933045
130	0xbbf1d97f	-0.007380664
131	0x3dc84ee6	0.09780674
132	0x3e9e7052	0.3094507
133	0xbd6e9841	-0.05825067
134	0x3e6a2e6f	0.22869276
135	0x3e1b04df	0.15138577
136	0x3df820e7	0.121156506
137	0x3dc90bf6	0.098167345
138	0xbda35408	-0.07975012
139	0xbf534a49	-0.82535225
140	0xbee1b613	-0.44084224
141	0x3e918293	0.28419933
142	0x3e6d752c	0.23189229
143	0x3e34724d	0.17621727
144	0x3f1e95e5	0.6194747
145	0x3ef5c168	0.4799912
146	0x3e5aecae	0.21379349
147	0x3f07731a	0.52910006
148	0x3e42ec42	0.19035438
149	0xbefa43ca	-0.48879844
150	0xbf0d04bf	-0.55085367
151	0xbee940a7	-0.45557138
152	0x3ec5004c	0.3847679
153	0xbf795d8e	-0.9740838
154	0xbe921b07	-0.28536245
155	0xbf04feb1	-0.5195113
156	0x3f1ca86d	0.611945
157	0xbdf51d8c	-0.11968526
158	0x3fc3da8b	1.5301069
159	0xbf09fc12	-0.53900254
160	0x3f72ada4	0.94796205
161	0xbe4480e5	-0.19189794
162	0xbb1d1984	-0.0023971507
163	0xbe98dc6c	-0.2985567
164	0xbd10717b	-0.035264473
165	0xbf36a9ca	-0.7135283
166	0xbedde74a	-0.43340522
167	0x3f093da8	0.53609705
168	0xbf54f1ea	-0.8318163
169	0xbf7eba90	-0.9950342
170	0x3d43b6bb	0.047781687
171	0x3d525ac7	0.051356103
172	0x3f102006	0.56298864
173	0x3ed15d02	0.40891272
174	0xbe53e23a	-0.20691767
175	0xbf1d8024	-0.6152365
176	0x3f1deb0c	0.6168678
177	0xbf2137cd	-0.6297577
178	0xbe5a7235	-0.21332629
179	0xbd7d7138	-0.061875552
180	0x3eb09e51	0.34495786
181	0xbe3d9f55	-0.18517812
182	0x3f2fea9b	0.68717355
183	0x3eb17ae4	0.3466407
184	0xbe4d0b66	-0.2002388
185	0x3e6e1e3a	0.23253718
186	0xbf90be50	-1.1308079
187	0xbb817d67	-0.0039517167
188	0x3f56b5de	0.8387126
189	0xbe91e87b	-0.2849768
190	0xbe3a3e37	-0.18187796
191	0x3eec991d	0.46210566
192	0x3df9d11b	0.12198087
193	0xbe9cf270	-0.30653715
194	0xbd69931e	-0.057025068
195	0x3d9d262a	0.07673295
196	0xbf7a35bf	-0.9773826
197	0xbe044a94	-0.12919074
198	0x3f03d80e	0.5150155
199	0xbeaff995	-0.34370103
200	0x3f18a30e	0.596238
201	0x3fab4b18	1.3382292
202	0xbf10c5fb	-0.56552094
203	0xbf946682	-1.1593783
204	0x3e43fdd7	0.19139801
205	0xbf5a69db	-0.8531777
206	0x3eef8345	0.46779838
207	0xbdb6108e	-0.08889876
208	0x3b80b54f	0.0039278637
209	0xbf1adfbc	-0.6049764
210	0xbef23da5	-0.47312656
211	0xbc7270d3	-0.014797407
212	0xbec05740	-0.37566566
213	0x3f30a67c	0.69004035
214	0x3d0a2777	0.033729043
215	0x3e327937	0.17429052
216	0x3f0ce0a0	0.5503025
217	0xbd94a8b6	-0.072587416
218	0x3f963016	1.1733425
219	0x3decc7eb	0.11561569
220	0x3f13c827	0.57727283
221	0x3d858637	0.0651974
222	0xbf714f4f	-0.9426164
223	0xbe906e23	-0.28209028
224	0xbfcd5a02	-1.6043093
225	0xbf33ee43	-0.70285434
226	0x3f77219e	0.9653567
227	0x3e53bfce	0.20678636
228	0xbee8870d	-0.45415536
229	0x3f11dec2	0.56980526
230	0xbf4256b2	-0.75913537
231	0x3f285554	0.657552
232	0xbdb8a837	-0.090164594
233	0xbf457b65	-0.7714141
234	0xbe0ea07f	-0.13928412
235	0x3e109942	0.14120963
236	0xbead0175	-0.33790174
237	0xbec0e4d3	-0.3767458
238	0xbed0e3da	-0.40798837
239	0xbe0e3993	-0.1388915
240	0xbe0ef594	-0.13960868
241	0x3f5315db	0.82455224
242	0xbed47f97	-0.41503593
243	0x3ec8b772	0.39202458
244	0xbf166cf3	-0.58759993
245	0xbe1da572	-0.15395144
246	0x3ec5744f	0.385653
247	0x3e76beda	0.24096242
248	0xbed33701	-0.41252902
249	0xbe7a9db5	-0.24474223
250	0xbcb8ffcc	-0.022582911
251	0x3da9a442	0.08283283
252	0xbe85e476	-0.26150864
253	0xbd2dbc7a	-0.042416073
254	0xbefd4ff2	-0.49475056
255	0xbeb1c7f4	-0.34722865

bias f4 [32]
0	0xbd6afd91	-0.057370726
1	0xbe86e707	-0.26348135
2	0x3e5162ca	0.20447841
3	0xbe94949d	-0.29019633
4	0x3e74f1f3	0.23920421
5	0x3e074b5d	0.13212343
6	0xbe816cd6	-0.25278348
7	0xbe32bee6	-0.17455634
8	0xbd7e8545	-0.062138814
9	0x3e92b86f	0.28656337
10	0x3ee12ecd	0.4398102
11	0xbdf0afa3	-0.1175225
12	0x3f2c6d58	0.67354345
13	0x3e875cad	0.26437894
14	0x3e40cfb0	0.18829226
15	0x3e709a79	0.23496427
16	0xbeeae832	-0.45880276
17	0xbe1f7e88	-0.15575612
18	0xbca627cb	-0.020282647
19	0xbe63b0bc	-0.22235388
20	0xbe4919e5	-0.19638784
21	0xbd498f94	-0.049209192
22	0x3e1a18e8	0.15048563
23	0xbece5cb4	-0.40305102
24	0x3e1832af	0.14863084
25	0xbdf68f72	-0.12039079
26	0xbe706663	-0.23476557
27	0xbec4d233	-0.3844162
28	0xbf045880	-0.5169754
29	0x3f237876	0.63855684
30	0x3d1347e8	0.035957247
31	0xbe31e857	-0.17373787

weight f4 [32]
0	0x3f942ffd	1.1577145
1	0x3f9c2489	1.219865
2	0x3f9f3cf6	1.2440479
3	0x3f51c057	0.8193411
4	0x3fae96f9	1.3639823
5	0x3fb283aa	1.3946431
6	0x3f646dd7	0.892301
7	0x3f58a5f1	0.84628206
8	0x3f6cf672	0.92563546
9	0x3fbfada9	1.4974872
10	0x3fa88ce6	1.3167999
11	0x3fb85366	1.4400451
12	0x3f9d9247	1.2310265
13	0x3f9f2b74	1.2435136
14	0x3f99798d	1.1990219
15	0x3fac1a55	1.3445536
16	0x3fa87de3	1.3163418
17	0x3f765993	0.9623043
18	0x3fa94a28	1.3225756
19	0x3fa7a69f	1.3097724
20	0x3f7e32dd	0.9929636
21	0x3f994c62	1.1976435
22	0x3fa94a85	1.3225867
23	0x3fb2dd34	1.3973756
24	0x3fb0afdd	1.3803669
25	0x40007328	2.0070286
26	0x3f9a29da	1.2044022
27	0x3fa2057a	1.2657921
28	0x3fa2d290	1.2720509
29	0x3f908105	1.1289374
30	0x3fae31ba	1.3608925
31	0x3fa2bf4c	1.2714629

bias f4 [32]
0	0x3ec20145	0.37891594
1	0x3e8e9657	0.27849075
2	0x3eb2c81c	0.34918296
3	0xbeb57f31	-0.35448602
4	0x3e8ebc5b	0.2787808
5	0x3c97568f	0.018473892
6	0x3f236b94	0.63836026
7	0xbe59b1b5	-0.21259196
8	0xbe52ad0a	-0.20573822
9	0x3e7d6a11	0.24747492
10	0x3e982770	0.29717588
11	0x3dfc87f1	0.12330616
12	0x3ea154e7	0.31510088
13	0x3e51ec89	0.20500387
14	0x3ea6d636	0.32585305
15	0x3db7d42d	0.08976016
16	0x3eb475f2	0.35246235
17	0xbd571f6d	-0.052520204
18	0x3e008d0b	0.12553804
19	0x3eb03e8b	0.34422716
20	0x3ee51932	0.44745785
21	0x3eb43ff1	0.35205033
22	0x3e08ba48	0.1335231
23	0x3de3e7ca	0.11128195
24	0x3da4d8b1	0.08049143
25	0x3d9f882f	0.07789647
26	0x3e74c3c0	0.23902798
27	0x3e0df083	0.13861279
28	0x3d57dfb5	0.052703578
29	0x3f0c6421	0.54840285
30	0x3e90681d	0.28204432
31	0x3eca0ce9	0.39462975

weight f4 [102, 32]
0	0xbc0f0ac9	-0.008730599
1	0x3e53cef1	0.2068441
2	0x3f0e506e	0.55591476
3	0xbe00cf21	-0.12579013
4	0x3f7bcc41	0.9835854
5	0x3d939366	0.072058484
6	0xbeb30e22	-0.3497172
7	0x3e256afa	0.1615409
8	0x3dc403ef	0.09571063
9	0x3de8aeeb	0.11361488
10	0x3f20702f	0.6267118
11	0xbd6d5e32	-0.05795116
12	0x3e1875a3	0.14888625
13	0x3d5d35be	0.05400633
14	0xbec33cb9	-0.38132265
15	0x3ceba4ee	0.028765168
16	0xbf2de8e4	-0.6793349
17	0xbe02d6b9	-0.12777223
18	0x3f2c3f8a	0.6728445
19	0xbe5b12ff	-0.21393965
20	0x3c33a99d	0.010965732
21	0xbf7a4d8a	-0.97774565
22	0xbe28d81e	-0.16488692
23	0x3d10a0dc	0.035309657
24	0x3f67f649	0.90610176
25	0x3e16d0e5	0.14728124
26	0xbe870aa3	-0.26375303
27	0xbecc5061	-0.39905074
28	0x3e950c44	0.2911092
29	0xbfbc8e12	-1.4730856
30	0xbc843cb2	-0.016142223
31	0x3e8c52ec	0.27407014
32	0xbd5afcca	-0.053463735
33	0x3ebb0154	0.3652445
34	0x3cb2872b	0.021792969
35	0x3e22a9ad	0.15885039
36	0xbf8488d5	-1.0354258
37	0x3eb0fad8	0.3456638
38	0x3ef7d56c	0.48405015
39	0xbe33428e	-0.17505857
40	0xbe1e4802	-0.15457156
41	0x3d9773b0	0.073951125
42	0xbf6b3395	-0.9187558
43	0x3edf1e1c	0.4357766
44	0xbe5b8537	-0.21437536
45	0xbdf626df	-0.12019133
46	0x3e928da3	0.28623685
47	0x3e408de8	0.18804133
48	0x3fbe1f2b	1.4853262
49	0xbd636c85	-0.055523414
50	0xbf8209c9	-1.0159236
51	0x3e7c6908	0.24649441
52	0x3e04c1f7	0.12964617
53	0x3f55ab32	0.8346435
54	0x3e82f18f	0.2557492
55	0x3e6e861c	0.23293346
56	0xbf3b80e1	-0.7324353
57	0xbe896698	-0.26836085
58	0x3e94530a	0.28969604
59	0x3f4aa68f	0.791604
60	0xbe1a784a	-0.15084949
61	0xc013b920	-2.3081741
62	0xbd98c6a0	-0.0745976
63	0x3e9b696b	0.30353865
64	0xbe961218	-0.2931068
65	0x3f54b31a	0.8308579
66	0x3f39bed5	0.7255681
67	0x3dd88788	0.105727255
68	0x3fdc27e5	1.7199675
69	0x3e4349c1	0.19071104
70	0x3e10ce48	0.1414119
71	0x3e2b0712	0.16701916
72	0x3d5029bb	0.050821047
73	0xbe153dfa	-0.14574423
74	0x3f30d74c	0.69078517
75	0x3db16936	0.086626455
76	0xbe818e2d	-0.25303784
77	0x3e854521	0.26029304
78	0xbec6cd29	-0.388284
79	0x3e4136f4	0.18868619
80	0xbf3f8ae7	-0.74821323
81	0xbda1d9cf	-0.07902872
82	0x3eededfb	0.46470627
83	0xbe6f602d	-0.23376532
84	0xbea1771d	-0.3153619
85	0xbf9ea282	-1.2393343
86	0xbe1d7349	-0.15376009
87	0xbe5e7e75	-0.21727927
88	0x3f85aad6	1.044276
89	0x3e577f38	0.21044624
90	0xbe7a2f8c	-0.244322
91	0xbe34f5f7	-0.17671953
92	0x3ec3180b	0.3810428
93	0xbf9913e4	-1.1959195
94	0x3cf43cc2	0.029814128
95	0x3e9eb408	0.30996728
96	0x3c79b6f3	0.015241372
97	0xbd63779c	-0.05553399
98	0xbed8c08e	-0.42334408
99	0x3e049955	0.12949117
100	0xbfabd74c	-1.3425078
101	0xbe0a69cd	-0.13516922
102	0x3e5674b5	0.20942958
103	0xbe76a4d5	-0.24086316
104	0x3de3e29c	0.11127207
105	0x3eb34798	0.3501556
106	0xbf291376	-0.6604532
107	0x3cb156b7	0.021647794
108	0xbddb4965	-0.10707358
109	0xbdf18ca9	-0.11794407
110	0x3ee6282f	0.44952533
111	0x3e0e7ff9	0.13916005
112	0x3fabaf90	1.3412952
113	0xbd24cae8	-0.04023257
114	0xbf5cbb06	-0.86222875
115	0x3e287715	0.16451676
116	0x3ec4c706	0.38433093
117	0xbf6b3791	-0.9188166
118	0x3ddb89f8	0.10719675
119	0x3ef927fb	0.48663315
120	0xbed4e12a	-0.41578037
121	0x3e262364	0.16224438
122	0x3ec0a5fb	0.37626633
123	0x3f233ac3	0.6376154
124	0xbee7869c	-0.45219886
125	0xbff4f61f	-1.913761
126	0x3d879a8d	0.06621275
127	0x3f0d5b1e	0.5521716
128	0xbe0c3fd6	-0.13696226
129	0x3f188701	0.59581
130	0x3f32aacb	0.6979186
131	0xbe36b5f7	-0.17842852
132	0x3f777772	0.96666634
133	0x3e2f158c	0.17098063
134	0xbe23abc4	-0.15983492
135	0x3cef3887	0.029201759
136	0xbd5a3537	-0.053273406
137	0xbeb3f0a2	-0.35144526
138	0x3ebc0a23	0.36726484
139	0x3e037242	0.12836555
140	0xbe18a8f1	-0.14908196
141	0x3e954493	0.2915388
142	0xbda9d682	-0.08292867
143	0x3dbd5a1a	0.09245701
144	0xbf851648	-1.0397425
145	0x3de07603	0.10960009
146	0x3ed3f0c8	0.4139464
147	0xbdce9291	-0.10086549
148	0x3e79fc50	0.24412656
149	0xbee3e601	-0.44511417
150	0xbe1ebc33	-0.1550148
151	0xbee2ee3a	-0.44322377
152	0x3eef69be	0.46760362
153	0x3f45192a	0.7699152
154	0xbc8ad371	-0.016946526
155	0xbe6c572a	-0.23080125
156	0x3dc34aa0	0.09535718
157	0xbf5495db	-0.8304116
158	0x3d30d972	0.043176122
159	0xbde48143	-0.11157467
160	0x3e7292f1	0.23688866
161	0x3da2afa7	0.07943659
162	0xbf35ed7a	-0.71065485
163	0xbd0ef10f	-0.03489786
164	0xc00780b4	-2.1172304
165	0xbe420c4a	-0.1895
166	0xbc9e5dc4	-0.01933182
167	0xbdb0e273	-0.08636942
168	0x3db05fc4	0.08612016
169	0x3f180b56	0.593923
170	0xbdcb9edf	-0.09942412
171	0x3e9b3665	0.30314937
172	0x3daa53d1	0.08316768
173	0xbd36ad6c	-0.04459898
174	0x3e61162b	0.21981113
175	0x3ea1130c	0.31459844
176	0x3e776a9a	0.24161759
177	0x3e1c9159	0.1528982
178	0xbf36a967	-0.7135224
179	0x3f0d3a3b	0.5516698
180	0x3e1ca37b	0.15296738
181	0xbffe1b74	-1.9852128
182	0x3d72e222	0.05929769
183	0x3f301012	0.6877452
184	0x3d907e95	0.070553936
185	0x3f6a26ef	0.9146566
186	0x3ec61229	0.3868573
187	0x3f04a10f	0.51808256
188	0xbda9ee07	-0.08297353
189	0xbff3aba1	-1.9036752
190	0x3d567355	0.052356083
191	0x3f35b254	0.7097523
192	0xbd6dd601	-0.05806542
193	0x3f20b083	0.62769336
194	0x3f39e297	0.72611374
195	0x3e05e996	0.13077387
196	0x3f785bf9	0.9701534
197	0x3e8c9689	0.274586
198	0xbcc28261	-0.02374381
199	0xbe7f8d2e	-0.249562
200	0xbb1bec29	-0.0023791885
201	0xbecd74ea	-0.4012826
202	0x3e5db1d5	0.21649869
203	0xbde8816f	-0.113528125
204	0xbdc3d4fe	-0.095621094
205	0x3e25e3d6	0.16200194
206	0x3e4f61fa	0.20252219
207	0x3f0c6e73	0.5485603
208	0xbf99f476	-1.2027729
209	0x3e2ec3af	0.17066835
210	0xbdd6f35d	-0.104956366
211	0xbe87d803	-0.2653199
212	0xbe70b79e	-0.23507544
213	0x3e8d9bea	0.27658015
214	0xbd8bbdf0	-0.06823337
215	0xbf4b2f42	-0.79368985
216	0x3ee15523	0.44010267
217	0xbdfa7924	-0.12230137
218	0x3e2d2b4b	0.16911046
219	0x3d5f9e31	0.054594222
220	0x3dcf1ea7	0.10113268
221	0xbf0f9acc	-0.56095576
222	0x3dee733b	0.11643072
223	0xbdd5072b	-0.10401758
224	0x3e03681e	0.12832686
225	0x3ef98c57	0.48739883
226	0xbf085562	-0.53255284
227	0x3decfe65	0.115719594
228	0xc005bf0e	-2.089786
229	0xbe819068	-0.25305486
230	0x3d9e97db	0.07743808
231	0x3d7ea15f	0.062165614
232	0xbd96b490	-0.07358658
233	0x3edc7b78	0.4306295
234	0x3edc5a6a	0.4303773
235	0x3e5c2f67	0.21502458
236	0xbeb6862d	-0.35649243
237	0x3e8ed43d	0.278963
238	0x3ca04d21	0.019568028
239	0x3a6f277e	0.0009123011
240	0xbf4cbaac	-0.7997234
241	0xbdba5d07	-0.09099775
242	0xbf2481fe	-0.6426085
243	0x3f14dccb	0.58149403
244	0x3e906f46	0.28209895
245	0xbf92ed06	-1.1478584
246	0xbe31f2e3	-0.1737781
247	0x3ef61473	0.48062477
248	0x3ee81eee	0.45336097
249	0xbdf2fa9e	-0.11864208
250	0x3eeb1e0c	0.4592136
251	0x3f0d7edf	0.55271715
252	0x3e992218	0.29908824
253	0xbf7ea584	-0.99471307
254	0x3d3ddec9	0.046355043
255	0x3f39d643	0.7259256

bias f4 [102]
0	0xbdb42678	-0.087964
1	0x3d66d8e9	0.056359205
2	0x3e08998a	0.1333982
3	0xbce5b638	-0.02804099
4	0x3e80edc5	0.25181404
5	0x3c077edf	0.0082699945
6	0x3ddf3e62	0.109005705
7	0x3cf2a30c	0.029618762
8	0x3ea60adc	0.3243016
9	0xbba04515	-0.0048910477
10	0x3e93e886	0.2888834
11	0x3e1d9b27	0.15391217
12	0x3e50e7bd	0.20400901
13	0x3e84a873	0.25909767
14	0x3e397fea	0.18115202
15	0x3e2b36bc	0.16720098
16	0xbc764e8b	-0.015033375
17	0x3e160775	0.14651282
18	0x3d2cda4f	0.042200383
19	0x3d593364	0.053027526
20	0x3b770c2b	0.0037696462
21	0x3cfbd146	0.030739438
22	0x3d0b2f08	0.0339804
23	0x3d450988	0.048104793
24	0xbd088838	-0.033333033
25	0x3e259c59	0.16172923
26	0xbe48152d	-0.19539328
27	0x3d4adcde	0.04952704
28	0x3dc4ed37	0.09615558
29	0x3deceaf1	0.11568249
30	0xbc8a77a8	-0.01690276
31	0x3e21b3b5	0.15791209
32	0x3e0c5f68	0.1370827
33	0x3d5429af	0.051797565
34	0x3e595d5e	0.21227023
35	0xbe913634	-0.28361666
36	0x3ce53790	0.027980596
37	0x3ed9f4fc	0.4256972
38	0xbe262222	-0.16223958
39	0xbdb3d36f	-0.08780562
40	0xbcc15ef6	-0.023604851
41	0xbe21a2aa	-0.15784708
42	0xbed51741	-0.41619304
43	0x3dfde774	0.12397662
44	0xbe5b2bba	-0.21403399
45	0xbcb7a6e3	-0.022418445
46	0x3d70bfca	0.058776654
47	0x3e470184	0.19434172
48	0xbeb10820	-0.3457651
49	0x3d982ec0	0.07430792
50	0xbe66d02b	-0.22540347
51	0xbe45a7ce	-0.19302294
52	0xbe38a4f2	-0.18031672
53	0x3bce4b4a	0.0062955962
54	0xbd287eab	-0.041136425
55	0xbe9de768	-0.3084061
56	0xbea860e1	-0.32886413
57	0xbbf93ba6	-0.0076059876
58	0xbd17a7be	-0.037025206
59	0x3d91d472	0.07120599
60	0xbdb80c16	-0.0898668
61	0xbe114690	-0.14187074
62	0xbd1a9443	-0.03773905
63	0xbddca6d6	-0.10774009
64	0x3d16354e	0.03667193
65	0xbe8315dc	-0.25602615
66	0x3ddaee90	0.106900334
67	0x3e5a0e66	0.21294555
68	0x3e8e2a8d	0.2776684
69	0x3d40c5ce	0.04706364
70	0xbd11741f	-0.035511132
71	0x3daa2120	0.08307099
72	0x3d0122d3	0.03152735
73	0x3e4e26bb	0.20131962
74	0xbd37feff	-0.044920918
75	0x3daab040	0.08334398
76	0x3df71ecc	0.12066421
77	0x3e67dcfd	0.22642894
78	0xbd9c2c28	-0.0762561
79	0x3e67c4e1	0.22633697
80	0xbddcf8ae	-0.107896194
81	0xbd968568	-0.07349664
82	0xbe3fbad0	-0.18723607
83	0xbd52a83d	-0.051429976
84	0x3d7e707c	0.062118992
85	0xbdd0afd2	-0.10189785
86	0x3d2995e3	0.04140271
87	0x3d3758b4	0.04476233
88	0xbd871575	-0.065958895
89	0x3e8d30c8	0.2757628
90	0xbd2ec80c	-0.04267125
91	0xbd5e0d73	-0.054212045
92	0x3c393dcb	0.0113062365
93	0x3e3abcc1	0.18236066
94	0xbc146f02	-0.009059669
95	0xbd9b5434	-0.0758442
96	0xbd6699fd	-0.0562992
97	0xbe07615f	-0.13220738
98	0x3dfc4e4a	0.1231962
99	0xbeb6ad11	-0.35678914
100	0xbe87b043	-0.26501665
101	0xbe2021c8	-0.15637887

weight f4 [102]
0	0x405629bb	3.346297
1	0x401c8966	2.4458861
2	0x403992ba	2.8995805
3	0x402582e5	2.5861142
4	0x405dbcae	3.464641
5	0x40044822	2.0669026
6	0x4048aa96	3.1354117
7	0x4010a1e4	2.259881
8	0x403a2150	2.9082832
9	0x402a7515	2.6633961
10	0x403c1733	2.938916
11	0x402c2608	2.6898212
12	0x4031978d	2.774875
13	0x4032ba42	2.7926183
14	0x40433171	3.0498927
15	0x402a6bc3	2.6628273
16	0x40370df2	2.8602262
17	0x400b5cb9	2.1775343
18	0x40542a3a	3.3150773
19	0x4028d990	2.638279
20	0x4040f5f3	3.0150115
21	0x4025c7a3	2.5903099
22	0x40390992	2.8912091
23	0x4026a554	2.6038408
24	0x4036be39	2.8553603
25	0x401d8830	2.4614372
26	0x40435678	3.0521526
27	0x40190a54	2.3912554
28	0x402a46c4	2.6605692
29	0x402ad378	2.669157
30	0x40185cfa	2.3806748
31	0x402cb49c	2.6985235
32	0x4020be96	2.5116324
33	0x403488f8	2.82086
34	0x401d263e	2.455459
35	0x4025ec07	2.592531
36	0x4032a318	2.7912045
37	0x403471c5	2.819444
38	0x403675f4	2.8509493
39	0x404bb4ce	3.1829104
40	0x405037bc	3.2534018
41	0x404783c3	3.117417
42	0x406df921	3.7183306
43	0x4044dd76	3.076017
44	0x4066bdb3	3.6053283
45	0x404547bf	3.082504
46	0x4059db9c	3.404029
47	0x402ff9dd	2.7496254
48	0x404432da	3.0656037
49	0x4004e7fe	2.0766597
50	0x3fb7e877	1.4367818
51	0x405ce699	3.4515746
52	0x4005a546	2.0882125
53	0x407c4fc9	3.9423697
54	0x407d4691	3.957432
55	0x407bf415	3.9367726
56	0x407e2ef7	3.9716165
57	0x405c89ba	3.4459062
58	0x407220c0	3.783249
59	0x4072e451	3.7951853
60	0x4055708a	3.3349938
61	0x405913ff	3.3918455
62	0x40498a84	3.1490793
63	0x405a22ae	3.4083667
64	0x40376498	2.8655148
65	0x406c50eb	3.6924388
66	0x4034ef85	2.827119
67	0x405815d5	3.3763325
68	0x4031623c	2.7716208
69	0x403f0eb5	2.9852726
70	0x4031777f	2.7729185
71	0x403f2321	2.986519
72	0x4027ffcf	2.6249883
73	0x4042452a	3.0354714
74	0x40347b84	2.8200388
75	0x4038ce30	2.8875847
76	0x403142e9	2.7697089
77	0x402251b8	2.5362377
78	0x4039d486	2.9035964
79	0x400abf5e	2.1679301
80	0x4043661c	3.0531073
81	0x40314e6a	2.770411
82	0x4051fcb7	3.2810495
83	0x402d3007	2.7060564
84	0x40647872	3.5698514
85	0x40260a54	2.5943804
86	0x405d8f53	3.4618728
87	0x4034c8f4	2.8247652
88	0x4051f4e6	3.2805724
89	0x4050f5fc	3.2650137
90	0x404ec66f	3.2308614
91	0x40545e4d	3.3182557
92	0x404674c1	3.100876
93	0x404b5000	3.1767578
94	0x403bc1a8	2.9336948
95	0x4034fb29	2.8278296
96	0x403342f9	2.8009627
97	0x4040f5fd	3.015014
98	0x40299fa3	2.6503685
99	0x402ed5be	2.7317958
100	0x4045c869	3.090357
101	0x40265446	2.5988936
